res/linearmodel.pt (torch, 1383 bytes, 2 tensors)

_linear.weight f4 [6, 12]
-0.66828245 -0.69834447 0.24413615 0.17115757 0.15054248 0.229933 0.1784156 0.15202008
0.149928 0.09534826 0.14122416 -0.053572245 0.32470182 0.14185843 -0.85932 -0.5532546
0.23638894 0.019520873 0.10926037 0.24345149 -0.013591505 0.17831926 0.008574722 0.14912288
0.05378337 0.42351174 0.19565688 0.08297744 -0.6456677 -0.79887533 0.23180458 0.22189309
0.05462911 0.082673654 0.0879251 0.071577184 0.18123072 0.21754503 0.05910131 0.21018279
0.086949185 0.21035682 -0.77390605 -0.57700163 0.16530083 0.08397534 0.16192389 -0.008346108
0.10716452 0.26788938 0.038325697 0.21875912 0.14705667 0.076132834 0.2215719 0.2298753
-0.6551041 -0.0023747557 0.32489753 -0.548034 0.10946636 0.09847644 0.19451432 0.20886266
0.14003578 0.07377951 0.24961093 0.17529286 0.2846043 -0.13265812 -0.82415783 -0.007205932
00000000: 8f14 2bbf b4c6 32bf d4fe 793e ee43 2f3e
00000010: cf27 1a3e 8e73 6b3e 94b2 363e 27ab 1b3e
00000020: ba86 193e f345 c33d 119d 103e 926e 5bbd
00000030: 513f a63e 5643 113e 65fc 5bbf 18a2 0dbf
00000040: f10f 723e 3dea 9f3c e7c3 df3d 594b 793e
00000050: e7ae 5ebc 5399 363e fe7c 0c3c abb3 183e
00000060: f34b 5c3d 88d6 d83e 475a 483e 13f0 a93d
00000070: 7a4a 25bf 1883 4cbf 2e5e 6d3e f137 633e
00000080: c6c2 5f3d ce50 a93d 1312 b43d 0f97 923d
00000090: 8c94 393e 20c4 5e3e 3714 723d 283a 573e
000000a0: 6a12 b23d c767 573e b51e 46bf 61b6 13bf
000000b0: 9f44 293e 43fb ab3d 60cf 253e 1dbe 08bc
000000c0: 1279 db3d cc28 893e 68fb 1c3d 6402 603e
000000d0: 0696 163e 88eb 9b3d bfe3 623e 6e64 6b3e
000000e0: e7b4 27bf caa1 1bbb f858 a63e f54b 0cbf
000000f0: e62f e03d 04ae c93d c32e 473e 18e0 553e
00000100: 8a65 0f3e b619 973d 029a 7f3e f97f 333e
00000110: a8b7 913e 88d7 07be 02fc 52bf bd1f ecbb

_linear.bias f4 [6]
-0.2480047 -0.22611497 -0.29304135 -0.2864732 0.23677637 0.24163806
00000000: f2f4 7dbe af8a 67be 8409 96be 9eac 92be
00000010: 8175 723e f86f 773e
